FIT3181/model.pth (torch, 81542 bytes, 3 tensors)

weight f4 [6, 768]
00000000: cb77 723d 6759 143d 92a8 763c efd1 32be
00000010: 46cc 15bd 9f4d 943c 0189 9e3d 4c3a 8f3c
00000020: 0220 7d3d 1f5f 723e 36e1 52be 00e7 ddbc
00000030: f38a ef3c 9d47 62bd 7a22 40bd 3623 14bd
00000040: 76d8 fdbc a73c c83d 4dfb 013e 8fce 633a
00000050: 0f0e 593d ae0b 323d 8645 0ebd 0b81 1bbd
00000060: 1cb2 483d e3db 90bd 453d 5abd edc9 103d
00000070: 13a1 d8bd 2381 33bc 388c 07be d22d ecbd
00000080: 8df9 bbbc 94e6 503d 4d48 853d fb50 ac3d
00000090: 09d3 35bd 47a0 a4bd 8129 823d c655 30bc
000000a0: 325b 59bc e1bd 923c 8ffb aabc d590 33be
000000b0: 62e3 ef3b 139b 04bd 5649 adbd a107 93bc
000000c0: a96a 11bd a95a b5bc bb9c febc bf07 cd3d
000000d0: 73d1 45bd bd22 93bd 37a6 bdbd 7cbb 2dbd
000000e0: 75d7 43bc 8a39 c4bc e2e6 48bb 76aa 1ebb
000000f0: bddf 9abd 37c4 2fbe 2f1c 303b 7579 d53d
00000100: a8e3 423e 7e92 a2bc 0dec b138 7bff 56be
00000110: 5d82 2bbd fcc5 e13c b3b3 bcbd 72e2 8fbd
00000120: ac72 c53c b81a 01be 6845 fa3c 4dc8 9b3d
00000130: 5d3d ce3d 8c4f d83d d2d1 b2bd 42df f0bc
00000140: 398e 3f3d 8d9b debd 72af 03be 88fc 0e3e
00000150: 9edf a63c c27b 103a 23df 913d e1dc 10bc
00000160: 30b0 ab3d 5c7a d0bd c697 24bd 9dac de3d
00000170: d48e 61bd c5b6 3b3c 6d59 4d3d d14e 863d
00000180: 2f3b 8dbd cc18 ed3b 7c8b a7bd d535 77bc
00000190: 811f d63d 70ea 8f3b 3fce 153d 0ec0 d1bc
000001a0: 920b 873d 06e9 c2bd 6f38 5dbd 82a6 22be
000001b0: 358c 74bd e121 4c3c 1df2 093d 1eae 463c
000001c0: 612e 40bd 9fe6 da3d e63f 2cbd b8cf 1dbd
000001d0: e469 04bd 0d8d 893d 78c7 313d e4e1 7a3d
000001e0: ee41 b4ba 771b 7ebc 1d7b 88bb ddd2 8ebd
000001f0: a183 db3a bbb5 02be 61dd c5bd be84 ff3d
00000200: 78bd 8f3d d257 09bd 9e99 42be 9013 2d3d
00000210: 0a54 bc3d 8cb5 1e3e c417 97bd 1003 afbd
00000220: a3e0 cdbd 694c d9bd eb3d d63c 3612 e63c
00000230: d975 c6bc 6747 2f3b ed93 f73c aaa3 debd
00000240: 3c5e 733d 2802 95ba dba3 96ba a1e2 b13c
00000250: 9474 e1bd 7e57 1e3d 7e5f 993d 3603 ecbd
00000260: 27a3 bcbd 0477 aa3c 6783 3f3c 52b4 3c3d
00000270: e4e2 033c fcdd 083e 8acc de3a 8362 d9bc
00000280: 4ab8 44bc ed76 d8bd c2b3 4bbd d9c4 303e
00000290: 911a 36bd 208f 043d 36c8 98bc af4a 83bd
000002a0: 658d 993d 130b 81bd 9f4f 8a3d 87bc d6bc
000002b0: 700d 6bbd 9a72 083d c1cd 19bd 68d3 d7bc
000002c0: 0568 f6bc 37ac 83bd 0556 ed3d 05da e6bc
000002d0: 567f d33c 2f4f ec3d 4583 503d 4f6d 12be
000002e0: 444d 23bc b3b7 aab9 7093 b1bd 8ad1 223d
000002f0: 7ade 13b9 428b f0bd 7617 f7b9 ec03 8dbc
00000300: 60ad 73bd 3801 aebd 2466 82bd 370b aabd
00000310: cf4b 883d ab3e c23c 3e96 cebd 6f33 b23d
00000320: 38b0 afbc d96d eabc fb9e 25bd 1e99 7ebd
00000330: 5f99 103e 0974 cbbc 18be 1d3d ba66 813d
00000340: ae02 4ebd 34ee 1f3d 316d f1bc 5c59 dd3c
00000350: 0cb1 573d 0942 b43c 5f8e febc 0855 cdbd
00000360: f30c 5e3d c728 37bc 33fb 18be a3f6 623d
00000370: 0f0d f8bd db2b 19bd 0017 d4bd b5b2 eabc
00000380: 8fc5 ebbc 4e23 463c 32af 23bd 771b 3cbd
00000390: ce76 3c3b 005c 25be 0341 7e3e 71ff 8e3c
000003a0: 555a 6abd 70fd 633d 71ff 2ebe a32e 113d
000003b0: f0e7 babd 025c e73d 3c9d f1bc f223 443d
000003c0: 6b0f a03d fefc f53c b528 87bd a106 9cbd
000003d0: d706 cebc bb69 cfbc 5322 b5bd a0eb e53c
000003e0: 34c8 9dbd 5da8 4d3e 9172 803c dede 1ebd
000003f0: 9015 84be a92a 93bc 2719 d83d b2f4 8aba
0.059196275 0.036218073 0.015054839 -0.17462896 -0.036571763 0.018103419 0.07740975 0.017483853
0.061798103 0.23669098 -0.20593724 -0.027087688 0.02924106 -0.055244077 -0.04690788 -0.036166392
-0.030987006 0.097771935 0.1269352 0.00086901424 0.052991923 0.04346817 -0.03473427 -0.03796486
0.048997983 -0.0707319 -0.053281087 0.03534882 -0.105775975 -0.010956082 -0.13237083 -0.11532177
-0.022946144 0.051001146 0.06507931 0.08413883 -0.044390712 -0.08038383 0.063555725 -0.0107626375
-0.013266372 0.017912807 -0.020871906 -0.17535718 0.0073208073 -0.032374453 -0.08461253 -0.017947974
-0.03550211 -0.022137957 -0.031080594 0.10011243 -0.04829545 -0.0718436 -0.092602186 -0.042415127
-0.011953224 -0.023953218 -0.0030655195 -0.002421049 -0.07562206 -0.17164694 0.0026872267 0.10423557
0.19032156 -0.019845244 8.4839856e-05 -0.20995896 -0.04187237 0.027560227 -0.092139624 -0.07025613
0.024102531 -0.12607849 0.030550674 0.07606564 0.10070298 0.10562047 -0.08731426 -0.029403333
0.046766493 -0.10869513 -0.12859896 0.1396352 0.0203703 0.00055116054 0.07122638 -0.008841724
0.083832145 -0.10179588 -0.040183805 0.10872767 -0.055067852 0.01145715 0.05013411 0.06558002
-0.06896054 0.007235622 -0.081809014 -0.015088518 0.10455228 0.004391961 0.036573645 -0.025604274
0.06594004 -0.09517102 -0.054008897 -0.1588383 -0.059704024 0.012459249 0.033678163 0.012126474
-0.04691923 0.10688519 -0.042053126 -0.038528174 -0.032327548 0.067163564 0.04340312 0.061250582
-0.0013752559 -0.015509478 -0.004165067 -0.06973813 0.0016747602 -0.12764637 -0.09661365 0.124764904
0.0701856 -0.033531018 -0.19003913 0.042254984 0.09195717 0.15498942 -0.0737758 -0.08545506
-0.10052612 -0.10610277 0.026152572 0.028084856 -0.024226116 0.002674544 0.030221904 -0.1087106
0.05941604 -0.001136844 -0.0011492925 0.02171451 -0.11008564 0.038657658 0.07488917 -0.1152405
-0.09210806 0.020808704 0.011689044 0.046070404 0.0080497 0.1336593 0.0016998213 -0.026536232
-0.012006829 -0.10569558 -0.049731977 0.17262591 -0.04445893 0.032363057 -0.018650156 -0.06410729
0.07497672 -0.0630094 0.06753468 -0.026212944 -0.057385862 0.033312418 -0.037549738 -0.026345924
-0.030078897 -0.06429332 0.115886725 -0.028180132 0.025817554 0.115385406 0.05090644 -0.1429951
-0.009967152 -0.00032561793 -0.086706996 0.039750613 -0.00014101891 -0.11745311 -0.0004712899 -0.017213784
-0.059491515 -0.08496326 -0.06367138 -0.0830292 0.06655084 0.023711523 -0.1008725 0.087012164
-0.021446332 -0.028616833 -0.04043482 -0.062157743 0.14121006 -0.024835603 0.038511366 0.06318422
-0.050295524 0.039045528 -0.029471012 0.027020149 0.05265908 0.022004144 -0.031073747 -0.10025984
0.054211568 -0.011179156 -0.14939575 0.055410992 -0.12111866 -0.03739534 -0.103559494 -0.028649667
-0.028780727 0.012093378 -0.039962 -0.04592463 0.0028757337 -0.16148376 0.24829488 0.017455788
-0.057215054 0.05566162 -0.1708963 0.035444867 -0.0912627 0.11296846 -0.02949392 0.047885843
0.07815441 0.030027863 -0.06599561 -0.07618452 -0.025149746 -0.02531897 -0.088444375 0.028066456
-0.07704201 0.20083757 0.01567963 -0.03878676 -0.257977 -0.017964678 0.105516724 -0.0010601489

bias f4 [6]
00000000: ee24 5abd 9a2c 42bc 2ee0 223d ba13 0f3c
00000010: 78ba 51bc 032e 5a3c
-0.053257875 -0.011851454 0.039764576 0.0087327305 -0.012800805 0.013316634

prefix_embeddings f4 [20, 768]
00000000: 8c71 83bd 6ac7 dfbc e2f4 d7bd 667c 21be
00000010: 7391 363d d86e 173e 17c9 7cbd b6f0 36bd
00000020: 857c 843d 7891 77bd 9e6a 40bd 04c5 46bd
00000030: cb29 023d fafe e4bd 8ed1 44bb e20a 17be
00000040: 0f1a 363d 9235 f93d fd9c a1bd c136 e73a
00000050: 8fbc 09be 815e d8bc 72d4 8cbd 850a 903d
00000060: c57d 02bd e574 8abc 5783 093d ccaa 843d
00000070: 952b f13b e4d9 e1bd 51c0 b1bc 51a7 bdbd
00000080: eb12 cf3d 1776 8f3d ac11 e4bc ad95 043d
00000090: 9e47 84bd 5fb8 89bd 1642 40bc 2e1f 203d
000000a0: 6d44 c43d e0d5 34bd 3247 1a3c 1895 393d
000000b0: 8625 aabd e7da 45be e965 d63a 26ed 883d
000000c0: 0cdb 4d3c 9c78 b03d fe6e b33c 3539 2c3d
000000d0: 9b52 8d3d 6d6f 153e 34c6 8f3d f637 2d3d
000000e0: 4a45 253a c8b8 8fbd 85fc 05be d58d 1e3c
000000f0: aff8 ab3d 47b7 cdbd e9eb b5bd 88c1 dbbd
00000100: 451d 2abb c03e e3bd e372 ac3c 0b9b 5dbd
00000110: 1bce ac3c f3f1 76bc dc50 da3c 56fc 0abc
00000120: 50ed d3bd 624d 1bbd 808f 913d 8017 8dbd
00000130: 2355 273b 1615 9d3d 5a2f 793c f7f6 b1bc
00000140: eb64 bcbc 460f ebbd 183c c8bc 78db 81bd
00000150: 9a18 75bd fb32 473d 4744 cebc 5a3d 55bd
00000160: 935c cb3c ab9c 7f3d b02d 643b 9376 2e3b
00000170: 9a4b a0bd c210 8c3d 5007 023e e71e d83d
00000180: 07c7 46be bf2a 80bd 31e6 93bd f4f1 b9bd
00000190: 937c 82bc 6c3d e1bd 9623 313e 2137 bd3d
000001a0: 1406 28bd 4736 013e 9f42 4bbc 1622 993c
000001b0: a337 1ebe d0ef a43d 4e6d 983b dade 40bd
000001c0: 5dae 2dbd 3c5d 63bd 1e3d 013e 0de5 bdbc
000001d0: d143 89bd be22 15bc 1907 d1bc 2a2a 64bd
000001e0: 1f72 99bc 6107 3e3e e4ec aa3d 6db4 9d3d
000001f0: 311f b43c 62b3 cd3c 716f e8bd ea5b 8f3b
00000200: f39e 983d ed21 67bc de64 013e a705 d33c
00000210: 6f04 6cbc ae23 7a3d 033e 8a3d 0c3e bc3d
00000220: 35a4 f8bb b36c 443e 7175 30be fe15 753c
00000230: 2a31 f0bd db56 78bd 2bee 6ebd b017 4bbd
00000240: 3ee9 d03c 1cb2 ffbd 1126 11bd 891e 42bc
00000250: fe62 88bc 3778 263e ae21 583b 7962 0bbe
00000260: aee5 24be ebc9 87bd f245 533c 4e62 0f3e
00000270: bf84 023d e68b 8c3d 00f2 93bd 5924 6cbe
00000280: 24e1 6c3c 3caa 823d 0a9a 30bd da55 8fba
00000290: 17e5 de3c 4825 ccbd 7390 80bd bd3d 88bc
000002a0: ab93 9d3d ade4 a8bd dfe5 763d 3064 6ebd
000002b0: 1d32 83bb ce16 e1bc 8c86 5f3b bc75 f23d
000002c0: f6fb a8bd 124b 803d 4b2f 29bd 18a2 1dbd
000002d0: ce55 043c 96cf 873d cdfb 193c c9e7 bf3d
000002e0: 32c3 ddbd 7ca3 f93c 34c8 ffbc 7cc5 b2bd
000002f0: 83b6 0cbe 1d0b 633d 777b e33b 2d3d d53c
00000300: a843 a13d 5461 53bd 01f3 e1bc 30fa 8cbd
00000310: f6b7 f6bc e5f1 1e3d 7486 e1bd ce28 eebc
00000320: 44c0 e7bc 4b06 683d 4b3c 99bd a7ec b1bd
00000330: 2ff9 8e3d b2c7 c5bd 07ac f2bc b779 4ebd
00000340: 9e98 1e3c 27da db3d 0fc4 9f3a 1a4b fabc
00000350: c14f 273d e32e 80bd 674d e53c f55e 703d
00000360: f0f4 5b3b a3fb d63d 2891 17be 5c7b c3bd
00000370: e7ec 9cbd 872d 883a 76d4 db3d e789 2cbb
00000380: 007d c43d 1419 48bd b7aa 483c 0eb8 eabd
00000390: f346 01be 8fc3 303b ad05 103e c5f6 93bd
000003a0: f256 433d a61e ee3c cd39 7bbd c5fc 95bd
000003b0: e0f7 993d aebf 9ebd fdfd 7dbd adb3 0abb
000003c0: 0e05 a9bd 6e68 8ebd ab2b 5fbd b32d 1abd
000003d0: ab8c 18be 9e32 f1bc f7fa 99bd 2f56 43bd
000003e0: 5ff6 0d3c faba 46bc ce78 963c c61a de3c
000003f0: 9320 4a3e 8654 183e fb8a eebd f221 eabd
-0.06418142 -0.027316768 -0.105447546 -0.1577011 0.044572305 0.14788377 -0.06171521 -0.044663154
0.06469063 -0.060441464 -0.046976678 -0.048527732 0.031778138 -0.111814454 -0.003003213 -0.14750245
0.044458445 0.12168421 -0.07891271 0.0017640219 -0.13450836 -0.02641225 -0.06876458 0.070332564
-0.031858224 -0.016901443 0.03357252 0.064778894 0.0073599317 -0.110278875 -0.021698149 -0.09260429
0.1011103 0.07004946 -0.027840458 0.032369304 -0.064589724 -0.06724619 -0.011734506 0.039092235
0.09583364 -0.04414928 0.009416388 0.045308203 -0.08307938 -0.19321786 0.0016357276 0.066858575
0.012564432 0.086167544 0.021903511 0.042046744 0.06900521 0.14593287 0.07020226 0.042289697
0.00063045754 -0.07017666 -0.1308461 0.00967737 0.08397042 -0.10044723 -0.08882887 -0.107302725
-0.0025957387 -0.11095953 0.021050876 -0.05410294 0.021094372 -0.015072334 0.026649885 -0.008483013
-0.10347998 -0.037915595 0.071074486 -0.06889248 0.0025532923 0.076700374 0.015209043 -0.021724207
-0.02299734 -0.114775226 -0.024442717 -0.063406885 -0.059837915 0.048632603 -0.025179042 -0.052060463
0.024824416 0.06240527 0.003481727 0.0026620969 -0.0782692 0.06839134 0.12698102 0.10552769
-0.1941186 -0.06258153 -0.0722164 -0.09079352 -0.015928542 -0.109980434 0.17298731 0.09239031
-0.04102142 0.12618361 -0.01240602 0.018693011 -0.15450911 0.08053553 0.004651702 -0.047087528
-0.042402614 -0.055508837 0.1262097 -0.023180509 -0.06702388 -0.009102521 -0.02551608 -0.055704273
-0.018731175 0.18557502 0.083459646 0.07700429 0.02198753 0.02510995 -0.11349381 0.0043749707
0.07452192 -0.01410721 0.12636134 0.025759531 -0.014405354 0.061069183 0.06750109 0.09191522
-0.0075879344 0.1918209 -0.172323 0.014958857 -0.11728127 -0.060629707 -0.058332603 -0.049583137
0.025501844 -0.124851435 -0.035436694 -0.0118481 -0.016648766 0.16256796 0.003297906 -0.13611783
-0.16103241 -0.0663031 0.012895094 0.14002344 0.031864878 0.06862621 -0.07223892 -0.2306074
0.014457975 0.06380126 -0.043115653 -0.001093562 0.027208848 -0.09968048 -0.062775515 -0.016631002
0.07694181 -0.082467414 0.060277816 -0.058201015 -0.0040037767 -0.027476694 0.0034107296 0.11838862
-0.08251183 0.062643185 -0.041304868 -0.038484663 0.008077098 0.06631391 0.009398413 0.093703814
-0.10828246 0.030473463 -0.031223394 -0.087290734 -0.13741498 0.05543052 0.0069422084 0.026030147
0.078742325 -0.05160649 -0.027581694 -0.06883657 -0.030117016 0.038804907 -0.11011973 -0.029072192
-0.028289922 0.056646626 -0.07482203 -0.08687716 0.06981122 -0.096572295 -0.029623045 -0.050409045
0.009679941 0.10734969 0.0012189167 -0.03055339 0.040847544 -0.06258943 0.02799101 0.058684308
0.0033562742 0.10497215 -0.14801466 -0.09545013 -0.07662373 0.0010389545 0.10733883 -0.0026327313
0.09594154 -0.04885204 0.012247733 -0.11460887 -0.12624721 0.002697203 0.14064665 -0.07224802
0.04769034 0.029067349 -0.06133442 -0.073236026 0.075179815 -0.07751404 -0.0620098 -0.0021164224
-0.08252917 -0.06953512 -0.054485004 -0.03764124 -0.1489741 -0.029443081 -0.07518571 -0.047689613
0.0086646965 -0.01212954 0.018368151 0.027112376 0.19738989 0.14875993 -0.11647602 -0.11432256
