FIT3181/model.pth (torch, 81542 bytes, 3 tensors)

weight f4 [6, 768]
0	0x3d673c92	0.05645425
1	0x3d0e2a14	0.034708098
2	0x3c09ceb8	0.008411102
3	0xbe2e7eb4	-0.17040521
4	0xbd0706df	-0.032965537
5	0x3c9fe4fb	0.019518366
6	0x3da0b2ce	0.07846604
7	0x3c935ddc	0.017989092
8	0x3d81e27f	0.06342029
9	0x3e685903	0.22690205
10	0xbe46f97d	-0.1943111
11	0xbcc136ad	-0.023585642
12	0x3cf8679e	0.030322846
13	0xbd5bab85	-0.05363037
14	0xbd40bdc7	-0.047055986
15	0xbd11deb6	-0.035612784
16	0xbcff48e4	-0.031162687
17	0x3db882f7	0.090093546
18	0x3def9303	0.11697962
19	0xbb1a0867	-0.0023503543
20	0x3d47531d	0.048663247
21	0x3d12aae6	0.035807513
22	0xbd09cdd1	-0.033643547
23	0xbd2ad7a1	-0.041709546
24	0x3d31d413	0.04341514
25	0xbd8e1987	-0.06938463
26	0xbd5699f1	-0.052392904
27	0x3cf59841	0.029979827
28	0xbdd2f373	-0.103003405
29	0xbc00187d	-0.007818338
30	0xbe019d04	-0.12657553
31	0xbdd9ebc9	-0.106406756
32	0xbc9c851a	-0.019106437
33	0x3d45f98b	0.048333686
34	0x3d85632e	0.06513058
35	0x3daf5a6e	0.0856217
36	0xbd137dc8	-0.036008626
37	0xbda2498e	-0.07924186
38	0x3d80d443	0.06290486
39	0xbbb16678	-0.0054138266
40	0xbc51204d	-0.012764049
41	0x3c806778	0.015674338
42	0xbca4388e	-0.020046499
43	0xbe2b38d9	-0.16720904
44	0x3bcbb511	0.006216653
45	0xbcf64ec1	-0.03006685
46	0xbd9b1396	-0.07572095
47	0xbc9825cc	-0.01857271
48	0xbd0c00a4	-0.0341803
49	0xbc81d1d8	-0.015847132
50	0xbd04ea79	-0.032450173
51	0x3dc76195	0.09735409
52	0xbd35458b	-0.044255774
53	0xbd860e80	-0.065457344
54	0xbda63834	-0.08116189
55	0xbd2e0be7	-0.04249182
56	0xbca1f383	-0.019769436
57	0xbcb758ab	-0.022381147
58	0xbbac4652	-0.0052574063
59	0xbb2c2425	-0.002626666
60	0xbd96e9f9	-0.073688455
61	0xbe22727b	-0.15863983
62	0xbb01df97	-0.0019817108
63	0x3dd78e16	0.105251476
64	0x3e377c23	0.17918448
65	0xbc8fb967	-0.017544461
66	0x3a50afdb	0.0007960775
67	0xbe506bc8	-0.20353615
68	0xbd2ec4f8	-0.042668313
69	0x3cc62d4d	0.024191523
70	0xbdb9e755	-0.09077326
71	0xbd825ab9	-0.0636496
72	0x3ccd05be	0.025027152
73	0xbdeeffda	-0.116698936
74	0x3cfd2096	0.030899327
75	0x3d9db2d5	0.07700125
76	0x3dbda5bf	0.09260129
77	0x3dd1c184	0.10241988
78	0xbdb19ac2	-0.08672096
79	0xbcc8077c	-0.024417631
80	0x3d2679ba	0.04064343
81	0xbdd18375	-0.102301516
82	0xbdf287e6	-0.11842327
83	0x3e0a13c9	0.1348411
84	0x3ca38731	0.019961925
85	0xba5c1224	-0.0008395037
86	0x3d889e4c	0.06670818
87	0xbc10a448	-0.00882823
88	0x3da353c0	0.079749584
89	0xbdc8cde6	-0.09804897
90	0xbd1d123e	-0.038347475
91	0x3ddad293	0.10684695
92	0xbd6005ce	-0.054693036
93	0x3c672dce	0.014110042
94	0x3d3ef706	0.0466223
95	0x3d82dcf7	0.06389802
96	0xbd75cf32	-0.06001205
97	0x3b708394	0.003669952
98	0xbd9f0cff	-0.07766151
99	0xbc3c43a2	-0.011490734
100	0x3dcb3fdd	0.0992429
101	0x3baa525c	0.0051978063
102	0x3d1cffe4	0.038329974
103	0xbcbc52dd	-0.022988731
104	0x3d69d1e0	0.057084918
105	0xbdb5c0c8	-0.08874661
106	0xbd6a8189	-0.05725244
107	0xbe1a61db	-0.15076391
108	0xbd617dfb	-0.055051785
109	0x3c4bdb26	0.012442386
110	0x3d0291d0	0.03187734
111	0x3c0e1d8c	0.008674037
112	0xbd4341b0	-0.047670066
113	0x3dd33f82	0.103148475
114	0xbd2199a4	-0.039453164
115	0xbd19c662	-0.03754271
116	0xbceca7cc	-0.028888606
117	0x3d81ac10	0.063316464
118	0x3d2657cf	0.040611085
119	0x3d5c6bb7	0.053813662
120	0xbb2b91a2	-0.0026179333
121	0xbc59ea83	-0.013300541
122	0x3a9871cd	0.0011630595
123	0xbd840b79	-0.06447501
124	0xb9d31a24	-0.00040264532
125	0xbdf3380a	-0.11875923
126	0xbdbbf6d4	-0.09177938
127	0x3df05a10	0.11735928
128	0x3d8e163a	0.06937833
129	0xbd007a0e	-0.0313664
130	0xbe3d017a	-0.18457595
131	0x3d3efad2	0.04662592
132	0x3dbcd6d5	0.092206635
133	0x3e1c003d	0.15234466
134	0xbd967bca	-0.0734783
135	0xbda05c1e	-0.0783007
136	0xbdc3bea3	-0.095578454
137	0xbdca897e	-0.09889506
138	0x3cdf17f1	0.027233096
139	0x3cddf83c	0.027095906
140	0xbcb1f4b5	-0.02172313
141	0xbb011a92	-0.0019699675
142	0x3cfbe441	0.030748488
143	0xbdd477d4	-0.10374418
144	0x3d6dc7fd	0.05805205
145	0x3bc9eb86	0.00616211
146	0x3b0d9dd4	0.0021608965
147	0x3cb6e2fd	0.022325033
148	0xbdea728b	-0.114476286
149	0x3d1e1dd0	0.03860265
150	0x3d946684	0.07246116
151	0xbdde447e	-0.108529076
152	0xbdaacd45	-0.08339933
153	0x3caba910	0.020954639
154	0x3c2be620	0.010491878
155	0x3d2efd46	0.04272201
156	0x3c02098c	0.007936846
157	0x3e041a89	0.12900747
158	0x3700097e	7.631605e-06
159	0xbce5f625	-0.028071472
160	0xbc622d72	-0.01380478
161	0xbdd246b4	-0.10267392
162	0xbd383d38	-0.044980258
163	0x3e2d9e1e	0.16954848
164	0xbd1f3960	-0.038873076
165	0x3d0439b2	0.032281585
166	0xbc87c8a5	-0.016575167
167	0xbd727fab	-0.059203785
168	0x3d9559d3	0.07292523
169	0xbd8625c4	-0.06550172
170	0x3d894b37	0.06703799
171	0xbcae9e34	-0.021315672
172	0xbd6c256d	-0.05765288
173	0x3cf61142	0.030037526
174	0xbd0db8aa	-0.034599937
175	0xbcdb6027	-0.026779247
176	0xbd028e03	-0.031873714
177	0xbd7cc8dd	-0.061714996
178	0x3debc3e4	0.115119725
179	0xbcd22506	-0.02565242
180	0x3cd385c4	0.02582062
181	0x3ddf60fa	0.10907169
182	0x3d48f7cb	0.04906444
183	0xbe0905d4	-0.1338113
184	0xbc548c0b	-0.012972842
185	0x39fcdf59	0.00048231593
186	0xbda568e8	-0.0807665
187	0x3d2678e4	0.040642634
188	0xbb1a6643	-0.0023559488
189	0xbde76135	-0.11297838
190	0xbb1e4902	-0.0024152403
191	0xbc893d2e	-0.016752806
192	0xbd5b96e8	-0.053610712
193	0xbda53d0f	-0.08068287
194	0xbd720b61	-0.059092883
195	0xbda39d18	-0.07988948
196	0x3d84bead	0.06481681
197	0x3cae38e3	0.02126736
198	0xbdcabbdf	-0.09899115
199	0x3da76de7	0.08175259
200	0xbcb8f638	-0.022578344
201	0xbd05aaeb	-0.032633703
202	0xbd1f4187	-0.03888085
203	0xbd5f9b3a	-0.054591395
204	0x3e053e03	0.13011937
205	0xbcdc87a9	-0.026920157
206	0x3d0dcb49	0.034617696
207	0x3d6c51c0	0.05769515
208	0xbd4ed926	-0.050500058
209	0x3d370e53	0.044691395
210	0xbcd05252	-0.025429878
211	0x3ccccbaf	0.024999468
212	0x3d3e5359	0.046466205
213	0x3cd06ee1	0.025443496
214	0xbcd1e680	-0.025622606
215	0xbdc3f3fd	-0.095680214
216	0x3d553565	0.052052874
217	0xbc052155	-0.008125623
218	0xbe1a15ed	-0.15047427
219	0x3d66377c	0.056205258
220	0xbdfcd022	-0.12344386
221	0xbd0c7e36	-0.03430005
222	0xbdd1a7cc	-0.10237083
223	0xbce037b5	-0.027370313
224	0xbd00b7ea	-0.031425394
225	0x3c2e0ead	0.010623616
226	0xbd203055	-0.039108593
227	0xbd267134	-0.040635303
228	0x381ef159	3.7894908e-05
229	0xbe20d0cb	-0.15704648
230	0x3e709211	0.2349322
231	0x3c4ff211	0.0126919905
232	0xbd4efb2c	-0.050532505
233	0x3d556257	0.052095737
234	0xbe26c26a	-0.162851
235	0x3d0634b5	0.03276511
236	0xbdb6b5f2	-0.08921422
237	0x3de24618	0.110485256
238	0xbcae083f	-0.021244166
239	0x3d174d9f	0.03693926
240	0x3d9bf931	0.07615889
241	0x3ce02484	0.027361162
242	0xbd7753a7	-0.06038251
243	0xbd9a3000	-0.075286865
244	0xbcce8bfe	-0.025213238
245	0xbcf2719f	-0.029595194
246	0xbda1bc81	-0.078972824
247	0x3ccfd16f	0.02536842
248	0xbd917522	-0.071024194
249	0x3e41d958	0.18930566
250	0x3c810944	0.015751489
251	0xbcfc2018	-0.030777022
252	0xbe777548	-0.24165833
253	0xbc8ad4cc	-0.016947173
254	0x3dd2fb7f	0.10301875
255	0x3b11f7c2	0.002227292

bias f4 [6]
0	0xbd5689c0	-0.052377462
1	0xbc3cee2c	-0.011531394
2	0x3d2227f7	0.039588895
3	0x3c1a8334	0.009430695
4	0xbc5fe5d5	-0.013665636
5	0x3c64f739	0.013974958

prefix_embeddings f4 [20, 768]
0	0xbd816513	-0.063181065
1	0xbce25507	-0.027628435
2	0xbdd3457b	-0.10315987
3	0xbe1aaba2	-0.15104535
4	0x3d3872eb	0.04503147
5	0x3e16ecf4	0.14738828
6	0xbd7c00ab	-0.061524075
7	0xbd3296ab	-0.04360072
8	0x3d87ce30	0.06631124
9	0xbd6e5b15	-0.05819233
10	0xbd364c3f	-0.044506308
11	0xbd41f75a	-0.047355033
12	0x3cf7817e	0.030213114
13	0xbde066b4	-0.10957089
14	0xba49cead	-0.00076983386
15	0xbe14e01f	-0.1453862
16	0x3d3bfdf9	0.045896504
17	0x3df9f28d	0.12204466
18	0xbda0794a	-0.07835634
19	0x3b8169fc	0.003949402
20	0xbe05199e	-0.12998053
21	0xbccc89f3	-0.024968123
22	0xbd9451bf	-0.07242154
23	0x3d8a3996	0.06749265
24	0xbd01a6fe	-0.031653397
25	0xbc7473d3	-0.014920193
26	0x3d06a473	0.032871675
27	0x3d7dedef	0.06199449
28	0x3bf2fe07	0.0074155363
29	0xbddd4b94	-0.10805431
30	0xbcb70be2	-0.022344533
31	0xbdb563e5	-0.08856944
32	0x3dcbf72d	0.099592544
33	0x3d8bbf2c	0.068235725
34	0xbcdb71d7	-0.026787682
35	0x3d095691	0.03352982
36	0xbd7fe171	-0.062470857
37	0xbd8537f8	-0.06504816
38	0xbc70ad19	-0.014689707
39	0x3d246456	0.04013475
40	0x3dc8001e	0.09765647
41	0xbd42450d	-0.047429133
42	0x3c1cdc74	0.0095740445
43	0x3d3d45ac	0.046209022
44	0xbda578a3	-0.0807965
45	0xbe427c5a	-0.18992749
46	0x3a5759f1	0.00082150014
47	0x3d884baa	0.06655057
48	0x3c257332	0.0100982655
49	0x3daee719	0.08540172
50	0x3cc258ae	0.023723926
51	0x3d27b15c	0.040940627
52	0x3d8c4936	0.068499014
53	0x3e10d0c7	0.14142142
54	0x3d8d12d4	0.06888357
55	0x3d356050	0.044281304
56	0xbb6d4b1a	-0.0036208094
57	0xbd90ea55	-0.07075945
58	0xbe030bcd	-0.1279747
59	0x3c229f8d	0.009925735
60	0x3dac0c11	0.08400739
61	0xbdc86d98	-0.09786528
62	0xbdb6be14	-0.08922973
63	0xbdd464e0	-0.10370803
64	0x3b051053	0.002030392
65	0xbde0e507	-0.109811835
66	0x3cbb682d	0.022876823
67	0xbd5b5017	-0.053543177
68	0x3ca565c9	0.020190137
69	0xbc774001	-0.015090943
70	0x3cd7958e	0.02631643
71	0xbc002ada	-0.007822717
72	0xbdcc08d5	-0.09962622
73	0xbd180bbf	-0.037120577
74	0x3d912190	0.0708648
75	0xbd8f6a60	-0.07002711
76	0x3b108f58	0.0022058096
77	0x3d9afb1b	0.07567426
78	0x3c7a776c	0.015287261
79	0xbcb2bca9	-0.021818476
80	0xbcc3199f	-0.023815928
81	0xbdeb2f2d	-0.114836074
82	0xbcc568fe	-0.024097916
83	0xbd7610a4	-0.060074463
84	0xbd6e31a7	-0.05815282
85	0x3d4622db	0.048373085
86	0xbcc6b03a	-0.024253953
87	0xbd4f815d	-0.05066048
88	0x3cca1769	0.024669366
89	0x3d7eba1f	0.062189218
90	0x3bb60053	0.005554238
91	0x3ae53d74	0.0017489628
92	0xbd9f15a0	-0.077677965
93	0x3d896356	0.067084
94	0x3dfcbb2e	0.12340389
95	0x3dccf542	0.10007717
96	0xbe451a42	-0.19248298
97	0xbd7a409e	-0.06109678
98	0xbd953132	-0.07284774
99	0xbdb9bfee	-0.09069811
100	0xbc62c461	-0.013840766
101	0xbde4750e	-0.11155139
102	0x3e2ef3c8	0.17085183
103	0x3dbc28d7	0.09187477
104	0xbd328801	-0.043586735
105	0x3df7e15d	0.121035315
106	0xbc299e6b	-0.010352711
107	0x3c864188	0.01638867
108	0xbe1df24f	-0.15424465
109	0x3da76fa2	0.08175589
110	0x3b1e1238	0.0024119746
111	0xbd453633	-0.04814739
112	0xbd24541a	-0.040119268
113	0xbd589d80	-0.05288458
114	0x3dfdca21	0.12392069
115	0xbcc1eca0	-0.023672402
116	0xbd890e28	-0.06692153
117	0xbc550342	-0.013001265
118	0xbcc5f23e	-0.024163362
119	0xbd5ceea5	-0.053938527
120	0xbc97c799	-0.018527793
121	0x3e37d1da	0.17951146
122	0x3dafcd7d	0.08584116
123	0x3da0d506	0.07853131
124	0x3cb28dd1	0.021796139
125	0x3cbbf089	0.022941845
126	0xbde32de1	-0.11092735
127	0x3b58ff97	0.0033111328
128	0x3d98c139	0.07458729
129	0xbc8a2841	-0.016864898
130	0x3e019c5e	0.12657306
131	0x3ccbcd40	0.024878144
132	0xbc4c8427	-0.012482679
133	0x3d774cdd	0.060376037
134	0x3d837a31	0.064197905
135	0x3dbbcaa8	0.09169513
136	0xbbe1b13d	-0.0068875835
137	0x3e3d8fbb	0.1851186
138	0xbe294ef7	-0.16534029
139	0x3c73502f	0.01485066
140	0xbdeec929	-0.11659462
141	0xbd729b1d	-0.05922996
142	0xbd601c3f	-0.054714438
143	0xbd4e4aad	-0.050364185
144	0x3cd71f56	0.02626006
145	0xbdff16a7	-0.124554925
146	0xbd195427	-0.03743377
147	0xbc34f57e	-0.011044858
148	0xbc88d7a3	-0.016704386
149	0x3e21e1a5	0.15808733
150	0x3abfdda0	0.0014638193
151	0xbe080ae0	-0.13285398
152	0xbe23ccdd	-0.15996118
153	0xbd8aaabd	-0.06770847
154	0x3c47a5eb	0.012185554
155	0x3e08a5d4	0.13344508
156	0x3ce508ee	0.02795836
157	0x3d86f520	0.06589723
158	0xbd8f4966	-0.069964215
159	0xbe661f5d	-0.22472902
160	0x3c7f2aaf	0.015574141
161	0x3d7eadc1	0.062177423
162	0xbd284d0f	-0.041089114
163	0xbb4224cd	-0.0029623986
164	0x3cdb8e8e	0.026801374
165	0xbdc81a84	-0.097706825
166	0xbd7cc2ec	-0.06170933
167	0xbc8794fd	-0.016550535
168	0x3d99fdc3	0.07519104
169	0xbda35e35	-0.07976953
170	0x3d67f71a	0.05663214
171	0xbd6f60ff	-0.058442112
172	0xbb47b237	-0.0030471215
173	0xbcf49a55	-0.029858747
174	0xba023d65	-0.0004968255
175	0x3dec72bf	0.115453236
176	0xbdad9545	-0.084757365
177	0x3d679acf	0.05654412
178	0xbd297d97	-0.041379537
179	0xbd220c1a	-0.039562322
180	0x3bf58f9d	0.0074939267
181	0x3d851452	0.064980164
182	0x3c21fb69	0.009886601
183	0x3dc154a2	0.094399706
184	0xbddf85f3	-0.10914221
185	0x3cf77fc8	0.030212298
186	0xbcf4a9fb	-0.02986621
187	0xbdadccb4	-0.0848631
188	0xbe0c8b30	-0.13724971
189	0x3d63536d	0.055499483
190	0x3b8183f5	0.003952498
191	0x3cdd84aa	0.027040798
192	0x3d9ca665	0.07648925
193	0xbd5185d9	-0.051153038
194	0xbcda6f2c	-0.026664339
195	0xbd8c5124	-0.06851414
196	0xbcfa7caa	-0.030577023
197	0x3d1e0c12	0.03858573
198	0xbddce20f	-0.10785305
199	0xbcdb6146	-0.026779782
200	0xbcd070d7	-0.025444431
201	0x3d65b516	0.0560809
202	0xbd9ce9f8	-0.076618135
203	0xbdabef3d	-0.083952405
204	0x3d8af059	0.06784124
205	0xbdc4ba2d	-0.09605823
206	0xbce2c93e	-0.02768385
207	0xbd46bf2e	-0.048522167
208	0x3c2c579c	0.010518935
209	0x3dd255a8	0.10270244
210	0x3a54685d	0.00081027095
211	0xbd01d0e2	-0.031693347
212	0x3d18f304	0.037341133
213	0xbd642b1d	-0.05570518
214	0x3cea29fb	0.028584471
215	0x3d682f1b	0.05668555
216	0x3b03e0b0	0.0020122938
217	0x3dcc3b6e	0.09972273
218	0xbe1367d0	-0.1439507
219	0xbdc1a785	-0.0945578
220	0xbda2de82	-0.07952596
221	0x3935aa65	0.00017324982
222	0x3dda4e5d	0.10659478
223	0xbb6b6ea1	-0.0035924094
224	0x3dc44b27	0.09584647
225	0xbd40b975	-0.047051866
226	0x3c62ea59	0.013849818
227	0xbdec5de4	-0.11541346
228	0xbdfad5f4	-0.122478396
229	0x3be11643	0.006869109
230	0x3e0d181c	0.13778728
231	0xbd9a3a8f	-0.075307004
232	0x3d4920f3	0.04910369
233	0x3d00329b	0.03129826
234	0xbd72792b	-0.059197586
235	0xbd913ad6	-0.070913
236	0x3d965124	0.07339695
237	0xbd9dfd9f	-0.0771439
238	0xbd797ccf	-0.060910042
239	0xbb9ee9ae	-0.004849634
240	0xbda7ba86	-0.081898734
241	0xbd86f846	-0.06590323
242	0xbd55bc34	-0.052181438
243	0xbd1488de	-0.03626334
244	0xbe16847b	-0.14698975
245	0xbcd96def	-0.026541678
246	0xbd980221	-0.07422281
247	0xbd4b1b49	-0.049586568
248	0x3c251bfb	0.010077472
249	0xbc58fbbc	-0.013243612
250	0x3c978dbc	0.018500201
251	0x3cdfc023	0.027313298
252	0x3e477862	0.19479516
253	0x3e17bb98	0.14817655
254	0xbded1f86	-0.11578278
255	0xbde429a9	-0.111407585
